Python_个人项目/人工智能/个人学习用项目-让AI学会算数（失败项目）/math.pth (torch, 536291 bytes, 9 tensors)

embed.weight f4 [128, 6]
00000000: b4e0 04be c266 f0bc ec4c 63bb 6cfb 83bd
00000010: 4eef f53d 58b3 0ebe 9a7a 18c0 b877 f33d
00000020: 4347 c1bf 06a6 c4bf 1db4 5b3f 7c26 c7bf
00000030: e8a5 2abf 1698 0b3e c81b 34c0 63d1 dcbf
00000040: 8ed3 8d3f c0c2 89c0 1cfe fbbb 999a 2abc
00000050: 1100 0dbf 736f 17be 5db4 07be 6cbe 8bbd
00000060: bf67 f7bd d9d6 c1bc 9740 123e ebcc 7bbd
00000070: a89e 46be c007 783c 06c9 bc3d 80d3 10c0
00000080: 18b9 afbf 1500 a5bf 46e7 b0bf 9759 743f
00000090: 9ec7 5d3d 0bcd 233c 1cc9 febf 4b70 64bc
000000a0: 3f3b 09c0 a778 7d3d 9f48 fd3a d791 3cbe
000000b0: 2745 b7bd bfe7 cabd e05c be3d b16b 3d3d
000000c0: 9166 4e3e d6de 24bf 2ba6 65c0 05f2 1a3e
000000d0: 3542 403f 0e0e dcbe 8416 3bbd 238b a1bb
000000e0: 8819 8fbe f8b7 54be a445 4ebe 913f 27bf
000000f0: 560b 58bc a627 48be d435 8d3d e99a 9c3d
00000100: e655 71be 55f9 113a 982b d7be 51e6 eb3d
00000110: f2d6 4ac0 0213 883f 9c10 69bd a636 4ac0
00000120: f8e8 96bd 4139 95b9 e6a5 9ebd 12e5 28bf
00000130: e252 5cbe 82fe 8abf b1ac d1ba d630 8fbd
00000140: a2be db3d db35 b2be bedd a1bd c336 10be
00000150: 1eb7 23be 1c57 eebc a327 7e3e 76c2 58bf
00000160: 91b6 b03d 1c85 efbd 0a76 17be a3c1 ccbd
00000170: c227 6dbe 3b60 893f 3f29 17bd b153 76be
00000180: 763d c83d 0369 9bbe 3692 53be a3a2 f9bf
00000190: 9bd3 1f3f fe4d cd3f 7d22 c0bb dfe8 4ebf
000001a0: 02a9 1a3f 47f8 67bf f160 8dbf e61b d33d
000001b0: bfce b3be 069a a53e 9d95 85bf fb37 8e3e
000001c0: 56e9 d83e 3016 9f3e feed 96be 59f1 6dbd
000001d0: a1ba 3bbd 3975 33bd 1e7d 03be cc9a 813c
000001e0: 57e5 4a3e 6046 4ebf 266f 73c0 2adf 1dc0
000001f0: fc87 4f3f 28b4 c5be f314 8dbe ae08 0abe
00000200: ef8d c4be f933 403f 9ccf bdbe aeb2 503f
00000210: f411 22bc f98e 27be 650b 383d 43c3 2f3e
00000220: 0d44 f6bd 5dae 093d 098c 7abd c185 91bd
00000230: 1b67 043f d544 ac3f 0540 88bf 2b89 e23f
00000240: bbd5 b0bd 2eea d0bc 157f 663d 6195 c9be
00000250: 41ae 0fbe 5a34 dabb da61 b1bd 943b f1bd
00000260: 557f 7c3d eccf 0c3c e57b 943d 938f 1a3d
00000270: 950c 5e3c 6983 d8bf 1a30 0cbe 370a 58bf
00000280: 0335 e03f 04e2 45bf cdc0 28bf 5647 b03d
00000290: 074a 26c0 52b5 803e 3c51 21be 9339 133f
000002a0: 373d 6dbe 8197 5cbe 0a25 fc3e 6628 8abf
000002b0: 6b5f 75bd ac7f 1abe 79ad ea3d 28cd 503d
000002c0: daca 3e3e 0818 9cbc 91e9 71bf 40b8 8cbe
000002d0: f043 a6bd 7f5f a1bc 3c25 03bf fe25 6fbc
000002e0: 380b 8ebe f29a 083e 6413 28be 20f5 52ba
000002f0: 0bb2 bcbf 1c0d bdbf 2ae3 bdbf 0e48 913f
00000300: 486c 1b3a 5b1c 57bd 3c7b cd3c c86b cf3d
00000310: dbb7 ea3c a86f 493d c31e f33a 7fb2 06be
00000320: ff7a c8bc 566e 1b3d d729 e33c 4e72 9d3d
00000330: ce75 06be 8461 cebc bda1 593d 8950 6e3d
00000340: 25ba b43d 2718 15be b580 debd b045 e8bc
00000350: 23d8 ccbd b0ce 0d3e f97e 02bf 63b4 423e
00000360: 5b28 60bd e3fb 96bd e0b0 fe3f 5228 933f
00000370: 93fb 06c0 ca4e da3f 90ce c7bc 3640 033c
00000380: 87f4 c4bd 7dae b8be 43e1 86be f7ca 3bbf
00000390: e1be 7ebd 0a54 53bc d6f0 91bd ceb2 bebd
000003a0: d1ac 0cbe 87d9 703d 6461 9eba 4f01 39bd
000003b0: 45e6 bebe 8516 b0bc f7d8 af3d f41c 33be
000003c0: 5541 0fbf b366 123e df4a cbbf 741c 8dc0
000003d0: 7d8a 9c3f 5d53 f5bf e98d 2bbd da9b ac3c
000003e0: b9cf 07be 204b a8be 15c3 b6be 94f1 2ebf
000003f0: 4266 323e ed52 b63d 863c 7a3e dc86 f9bf
-0.12976342 -0.029345874 -0.00346833 -0.06444439 0.12008534 -0.13935602 -2.382483 0.11888069
-1.5099872 -1.5363166 0.85821706 -1.555862 -0.666594 0.13632235 -2.8141956 -1.72514
1.1080186 -4.305023 -0.0076902043 -0.0104128355 -0.55078226 -0.14788608 -0.13252397 -0.068234295
-0.12080335 -0.023662018 0.14282452 -0.061474722 -0.1939646 0.0151385665 0.0921803 -2.262909
-1.3728361 -1.289065 -1.3820579 0.95449203 0.054145448 0.0099976165 -1.9905124 -0.013942788
-2.144241 0.06188264 0.0019324011 -0.18415008 -0.08948737 -0.09907483 0.09295058 0.04624528
0.20156313 -0.6440252 -3.588267 0.15131386 0.75101024 -0.42979473 -0.04567577 -0.0049299165
-0.27949166 -0.20773304 -0.20143753 -0.6533137 -0.013186296 -0.19546375 0.068950325 0.07646734
-0.23567924 0.00055684644 -0.42025447 0.11518539 -3.1693692 1.0630801 -0.056900606 -3.1595855
-0.07368654 -0.00028462152 -0.07746486 -0.65974534 -0.21515992 -1.085892 -0.0015996901 -0.069917366
0.1072972 -0.34806713 -0.07903622 -0.1408339 -0.15987822 -0.029094271 0.24819808 -0.84671724
0.08628572 -0.116953105 -0.14791122 -0.09997871 -0.23159698 1.0732492 -0.03690457 -0.24055363
0.09777348 -0.30353555 -0.20661244 -1.9502758 0.6243226 1.6039426 -0.0058634863 -0.80824083
0.60414135 -0.90613216 -1.1045209 0.103080556 -0.35118672 0.32344073 -1.0436283 0.27777085
0.4236552 0.31071615 -0.2947845 -0.058091495 -0.04583228 -0.043812964 -0.12840697 0.015820883
0.19814049 -0.80576134 -3.803659 -2.4667459 0.8106687 -0.3861401 -0.27555045 -0.13479874
-0.38389537 0.75079304 -0.37072456 0.81522644 -0.009891976 -0.16363133 0.04493274 0.1716433
-0.120246984 0.03361355 -0.061168704 -0.0710559 0.51719826 1.3458506 -1.0644537 1.769811
-0.08634516 -0.02550229 0.05627354 -0.3937178 -0.14031316 -0.006659073 -0.08661242 -0.11778942
0.06164487 0.008594494 0.072501935 0.03773458 0.0135528045 -1.6915103 -0.13690224 -0.84390587
1.7516178 -0.77298 -0.6591919 0.08607356 -2.5982683 0.25138336 -0.15753645 0.57509726
-0.23167883 -0.21542169 0.4924701 -1.0793579 -0.05990545 -0.15087765 0.114588685 0.050976902
0.18632069 -0.019054428 -0.9449702 -0.27484322 -0.08118427 -0.019698856 -0.5122869 -0.01459646
-0.27742934 0.13340357 -0.16413647 -0.0008047391 -1.4741834 -1.4769626 -1.483495 1.1350114
0.0005928916 -0.052517276 0.025083177 0.101279795 0.028652122 0.04917875 0.0018548596 -0.13154028
-0.024472712 0.03794702 0.027729912 0.076878175 -0.13130876 -0.025192983 0.05313276 0.058182273
0.08824567 -0.14559995 -0.10864393 -0.028353542 -0.10002162 0.13848376 -0.50974995 0.19014125
-0.054725986 -0.07372262 1.9897728 1.149668 -2.1091049 1.7055295 -0.024390489 0.008010915
-0.096169524 -0.36070624 -0.26343736 -0.73356575 -0.062193755 -0.012898454 -0.07126014 -0.09311448
-0.13737799 0.0588012 -0.0012083468 -0.045167264 -0.37285057 -0.021495113 0.08586305 -0.17491513
-0.55959064 0.14296989 -1.5882224 -4.4097233 1.2229763 -1.9166065 -0.041883383 0.02107041
-0.13262834 -0.32869816 -0.3569571 -0.6833737 0.17421821 0.089025356 0.2443715 -1.9494281

embed.bias f4 [128]
00000000: 0000 0000 8149 613e f214 693f 9d3a 3fbe
00000010: 0000 0000 1b77 d33e be99 80bf 3124 17bd
00000020: d85f 7e3f 3b04 90be 159c d3bc 5a25 1bbe
00000030: 5294 84be fbce 09be b22c a3bd 8159 2d3e
00000040: c23b 153f 35fa 9a3d 958e 983e 0000 0000
00000050: 254f 0b3f 36b7 363f 0000 0000 23b8 923f
00000060: 6526 95be 0000 0000 5a19 9b3f 340b f63c
00000070: b906 20be 4b4d 89bf 2545 97be a505 2a3f
00000080: ee4a 8abd 0000 0000 0000 0000 ab63 3fbe
00000090: f1fa 0d40 b611 f6be 0000 0000 8f8b fdbd
000000a0: 3700 703f 3479 10bf b699 a2bf e977 87be
000000b0: 1b3a 6cbc 61cd 99bc 4739 2a3f 7f42 3fbe
000000c0: 7dc7 99bd 745e 4e3f 4dee 84bf 0192 4abd
000000d0: ecbb f53e 1ec9 783f 0338 ffbf 2ca8 b7bf
000000e0: 4093 753f 0000 0000 8498 a4be cbe0 8dbe
000000f0: f236 083f 0808 e7bd 0ffd 943f c7e1 edbe
00000100: 3b38 8fbe 570a 93be 0000 0000 0000 0000
00000110: 5b62 b7bc 8837 f8bd b50c d4bf 0000 0000
00000120: 4995 5fbf a8bf f13f 7cb9 fc3f 68e9 a83f
00000130: 0000 0000 be6c 6bbc 2698 233f abec fdbe
00000140: a9d8 283f 07e0 b8bc f77b 14c0 e07e b23f
00000150: ba33 b1be 0000 0000 0000 0000 8627 e6be
00000160: 0000 0000 c627 4bbf 6d10 3ebf 93c0 a73f
00000170: bb8b f5bd 3bb2 013f 1382 8f3e ff3d ccbf
00000180: 26fd cf3e 3b24 963e 6eeb 0e3f 0000 0000
00000190: c0b5 86bf 68d1 14bf 6095 9cbe 0000 0000
000001a0: d0b2 e8be 5cda 3a3f 0000 0000 0000 0000
000001b0: 0000 0000 3294 15bd 128e 13bf 36c6 b83e
000001c0: 2543 a03f 0000 0000 c90c f9be 112c af3f
000001d0: 0e90 183f 9529 e0be 98f1 71be 0000 0000
000001e0: 2c82 b5be d1e7 28bf 0000 0000 0000 0000
000001f0: 0000 0000 0000 0000 57d6 14bf 02f6 eebd
0.0 0.22000696 0.91047585 -0.18674703 0.0 0.41301808 -1.0046918 -0.03689975
0.99364996 -0.28128228 -0.025831262 -0.15150967 -0.2589441 -0.13457863 -0.07967509 0.16928674
0.5829431 0.075672545 0.2979628 0.0 0.5441764 0.7137331 0.0 1.1462444
-0.29130855 0.0 1.2117112 0.030034639 -0.15627564 -1.0726713 -0.2954494 0.6641486
-0.06752573 0.0 0.0 -0.18690364 2.2184412 -0.48060387 0.0 -0.12380134
0.9375033 -0.5643494 -1.2703159 -0.26458672 -0.01441815 -0.01877469 0.6649365 -0.1867771
-0.075087525 0.80612874 -1.0385224 -0.049455646 0.47994936 0.9718188 -1.9938968 -1.4348197
0.9592781 0.0 -0.3214761 -0.27710566 0.5320884 -0.11280829 1.1639727 -0.46461317
-0.27972588 -0.28718826 0.0 0.0 -0.022385767 -0.12119967 -1.6566378 0.0
-0.87337166 1.8886614 1.9744105 1.319623 0.0 -0.014369188 0.63904035 -0.49594626
0.659556 -0.022567762 -2.3200662 1.3944969 -0.34609777 0.0 0.0 -0.4495203
0.0 -0.79357564 -0.74243814 1.3105644 -0.11989542 0.50662583 0.28028926 -1.595642
0.40622824 0.29324517 0.5582799 0.0 -1.0524216 -0.5813203 -0.30582714 0.0
-0.45448923 0.7298944 0.0 0.0 0.0 -0.036518283 -0.5763866 0.36088723
1.2520491 0.0 -0.48642567 1.3685323 0.5959481 -0.43781725 -0.23627317 0.0
-0.35450876 -0.65978724 0.0 0.0 0.0 0.0 -0.58139557 -0.11668016

lstm.weight_ih_l0 f4 [512, 128]
00000000: 0bfd 3d3d c4d1 e7bc 246d f3be 0279 c43d
00000010: cd63 713d 9a44 48be 4128 69bf 166b 423d
00000020: ae71 9e3e 9d35 aebd 09c5 06bd 4301 56bf
00000030: cbd8 803d 48e3 d8bc e6cd 1dbc 2707 c7bd
00000040: 19c8 5b3f 50e8 193d eb62 153f b57f c03d
00000050: 1a11 90be 1fc1 3d3f 4bf3 c33b f57f 3fbe
00000060: 326a 2ebd 37b5 d73c 29b4 b43d 05d9 17bf
00000070: c007 ab3d dafc bcbe 2cad 0b3e 469b 85bd
00000080: 8709 a3bd bd1d 9b3d b947 9e3c 178e 96be
00000090: adfc 85be 8faa 4bbd bc1d af38 20e0 b9bd
000000a0: df21 42c0 0d1b 523d e5f2 6fbe bd57 40bd
000000b0: d392 b0bd 1446 07bd b82e e83d 243c 17c0
000000c0: d247 21be 9d46 ab3e b085 38bf e21b ae3c
000000d0: 1770 24be d205 98bf 4631 b53f 886e 79be
000000e0: 2c3d d53e 0e38 753d 9b5c eb3c 3c32 1ebd
000000f0: 5d89 bbbf 26c2 92bf 89b4 cfbe 398c d1bf
00000100: a60e fbbc 67d4 563c c938 b13c 7937 31bc
00000110: 2c48 92bd 5f9d af3d 709b fa3b 65c1 4b3c
00000120: 25fc 2b3e b982 64c0 1000 0cbf 4209 bf3b
00000130: 9215 783b 5d4d 083d 9d16 48c0 cef4 0cbe
00000140: be0b 813f 3716 e6bd fdda 0f3f 87c0 33bc
00000150: 3352 363e fa93 373d 94ce bf3d 16cc c6bd
00000160: dfa8 4f3d f93e e43e d49e 643d 05b5 32c0
00000170: dbd3 87bd e090 e4be 68b4 6bbd d535 363f
00000180: 43cd c33f 9414 8dbe 18f2 3bbe 0ca2 a0bd
00000190: 31b7 5d3e cecf cbbe 09fd 86be 5004 edbc
000001a0: 41c2 7fbe b07f d0bc 4747 1f3b b5de 723d
000001b0: 9781 38bd 6020 123d 2361 f4bc 064f 0cbe
000001c0: 1569 81bf 586d d13d b9ae 64be fa5f 17bf
000001d0: 2c56 673f 3028 17bf 9cd5 0abe 9a36 02bd
000001e0: bd47 60bf 2222 aebe 7519 85bd 45e2 e9bc
000001f0: f1a9 38bd 3438 25bc 5af0 55bf 89c4 ed3d
00000200: 1630 9f3d b878 883f 651c aabb 30cf 5a3d
00000210: 5405 c5bd 2647 5a3e 18df b83e 08b3 5f3d
00000220: fe65 4d3e 0412 54bd 4227 7b3d 7a5f 53bc
00000230: f13f e4bb 6d14 2fbc a262 493d 65e8 2b3f
00000240: 6b02 3cbd 0908 57be ada1 4bbe 3921 bc3c
00000250: e687 c03d 296a 2a3f 0762 29bd 87c8 1fbf
00000260: 1a97 adbd 83c2 b5bd f6e6 8ebf ca12 2c3e
00000270: cfcf 71be eb67 8fbd 3ced 6b3d bb0c 263d
00000280: 766a 5cbd d8b0 afbc 13ef 9dbd 672e 1a3d
00000290: 61e5 d4be 1d7e 9abd 4e42 10ba c979 3e3d
000002a0: 089d 683d 3593 a8bd 3120 34be 8c5e 13be
000002b0: b454 48bd b19e bd3d 9106 d33d f891 0a3d
000002c0: 3427 6a3d 5fd7 9abe 2d8b 2a3f fb05 5bbb
000002d0: 1a73 2fbd 2470 71be b338 223e c4ba e5be
000002e0: 03ab ed3d f484 0fbd 9ab7 0dbe 85af f1bc
000002f0: 40ac a0bd c366 1bbe 5872 a53e 5e62 073e
00000300: a58c 84bc 0fd5 6e3c 41b9 883d 8ee6 663c
00000310: 08cc 133e 4f01 03be 0f32 2d3e dec6 9dbc
00000320: b987 fa3d 59f5 76bd aa76 62be 27a3 643e
00000330: 9e32 2e3d d998 3cbc 67d9 05bd 48db 193d
00000340: 99ce 8cbd 2ef8 733d d75e 0d3f ffcc d83e
00000350: 8f81 c4bd c941 f5bd a19e 343d 5907 d43b
00000360: 97c0 53bc ff71 5a3d 20c7 6d3e fabd 2bbe
00000370: e0ef 253b db29 b6bd 7a33 84bd 73df 2d3c
00000380: e10b 6ebe f346 23bd e889 5d3e 11fd 183e
00000390: 3299 c73e 0fea c1bd ff0c 183e dcc6 0d3d
000003a0: 3836 233e ee98 123d 9a0f a4bc 028a 27be
000003b0: d7e2 73bd f2b7 3bbe 317b 9a3d dfd7 273f
000003c0: 338f 06bf 7903 d4bb d795 0b3e 500f c63e
000003d0: f3bb c9be 35d8 0d3e 91b6 2dbd 172b 53bd
000003e0: 01b8 0a3e b2d5 883e 3b65 133d 3d6b 483c
000003f0: 3d20 8a39 d722 97bb cc7a b63e 8718 48bc
0.0463839 -0.028298266 -0.47544205 0.09593393 0.058933068 -0.1955742 -0.9107705 0.047465406
0.30946106 -0.0850632 -0.03290275 -0.83595675 0.0629135 -0.026475564 -0.00963161 -0.09718161
0.858522 0.037575066 0.5835406 0.09399358 -0.28138047 0.74122804 0.0059799305 -0.18701155
-0.042581744 0.026331527 0.08823425 -0.5931552 0.083510876 -0.3691166 0.13640279 -0.06523757
-0.079608016 0.075740315 0.01932131 -0.2940528 -0.2616934 -0.049723204 8.350189e-05 -0.090759516
-3.0333173 0.05129533 -0.234325 -0.046958674 -0.086217545 -0.033025816 0.11337036 -2.3630457
-0.15750054 0.3345231 -0.7207899 0.02125353 -0.16058384 -1.1876776 1.4155662 -0.2435857
0.41648233 0.05986791 0.028730681 -0.038622126 -1.4651295 -1.1465499 -0.40567425 -1.6370918
-0.030646633 0.013112164 0.021633523 -0.010816448 -0.07142672 0.08574938 0.007647924 0.012436246
0.16795404 -3.5704787 -0.54687595 0.005829961 0.0037854654 0.033276904 -3.1263802 -0.1376526
1.0081708 -0.11234706 0.56193525 -0.010971195 0.17804794 0.044818856 0.093655735 -0.09706895
0.050698157 0.44579294 0.055815533 -2.7922986 -0.06632205 -0.4464178 -0.057545096 0.7117589
1.5297016 -0.27554762 -0.1835407 -0.07843408 0.21651913 -0.3980698 -0.26364926 -0.02893272
-0.24976446 -0.025451511 0.002430396 0.05929442 -0.04504546 0.035675406 -0.029831475 -0.1370202
-1.0110193 0.10225934 -0.22332276 -0.59130824 0.9036586 -0.59045696 -0.13558048 -0.031790353
-0.87609464 -0.34010416 -0.06498996 -0.028550277 -0.045083944 -0.010084201 -0.8356987 0.11609752
0.077728435 1.066184 -0.005191373 0.053420246 -0.09620157 0.21316203 0.36107707 0.054614097
0.20058438 -0.051774994 0.061316736 -0.012901181 -0.00696563 -0.010686022 0.04916633 0.6715148
-0.045900743 -0.20999159 -0.19885893 0.02296506 0.094009206 0.6656824 -0.04135325 -0.62415355
-0.08476086 -0.08874991 -1.1164234 0.16804042 -0.23614429 -0.07002243 0.05759929 0.040539484
-0.053812467 -0.02144663 -0.077116154 0.03764191 -0.41581252 -0.075435854 -0.0005503044 0.046502862
0.05679038 -0.082312025 -0.17590405 -0.14391536 -0.048908904 0.092587836 0.10303987 0.033830613
0.057166293 -0.3024244 0.66618615 -0.0033420313 -0.04283438 -0.23577935 0.15841942 -0.44869053
0.116048835 -0.035038903 -0.1383957 -0.02950264 -0.07845354 -0.15175919 0.323138 0.13221118
-0.016180346 0.014577164 0.066759594 0.014093054 0.144333 -0.12793468 0.16913627 -0.019259866
0.12232918 -0.060292576 -0.22115579 0.22327863 0.04252874 -0.011511051 -0.032678034 0.03756264
-0.06875343 0.059562854 0.5522284 0.423439 -0.09595024 -0.11975438 0.044096593 0.0064706025
-0.012924335 0.05333137 0.23220491 -0.16771689 0.0025319979 -0.08894702 -0.06455131 0.0106123565
-0.23246719 -0.039862584 0.21634638 0.14940287 0.38984066 -0.09468471 0.14848708 0.034613475
0.15938652 0.035790376 -0.02002697 -0.1636124 -0.059542503 -0.18331888 0.07543028 0.6556377
-0.52562255 -0.0064701405 0.13631378 0.38683558 -0.39401206 0.13852008 -0.042410437 -0.051554766
0.13546754 0.26725537 0.035985213 0.012232599 0.0002634543 -0.0046123075 0.35640562 -0.012212879

lstm.weight_hh_l0 f4 [512, 128]
00000000: 9a5f 793e c51e 3abc 383a 10be af56 f73d
00000010: d446 553e cba5 22bd 3e1b 5bbe ed13 8f3d
00000020: c69b 77bd 79e6 133e dc64 bf3e e592 1e3e
00000030: f687 65bd 8d73 793c 3047 66bd e058 953e
00000040: 9a51 b5bd edfd f9bd af3d b1bd 58c3 6ebd
00000050: 03ce 2bbe a32c 2f3d ef3a 0dbd be35 423d
00000060: f531 9abe a310 d43d 049c 523e a0e3 1e3e
00000070: 4cee ee3d 0e73 ce3d 4a2b 213e c82a 94bd
00000080: 5d66 893d 3247 563d 50cd b23d bfc3 873e
00000090: d8cf bd3d 1e3f 803c c85b e73d 5574 0ebd
000000a0: b9b4 643d 5d75 d73d 53a7 be3e 801b 953d
000000b0: a6a7 f3bd 85f6 1eba 9ee9 523d 54f4 843d
000000c0: 9d6f 813d 0822 d83d ddc6 e03d 72f2 54bd
000000d0: 4803 8ebe bcaf 9a3d 2bcf b33d 3cd1 84bb
000000e0: aca1 b73e 4dcd 63bc 1e7f 373e 0a01 52be
000000f0: 921e 80bd 40ce 43be 2614 0dbe 8ea8 0cbe
00000100: e784 c0bd f2f8 02be 4dc6 6f3d 8628 a43a
00000110: f550 0b3d 328f 8ebd 3f8d 823d c80c 073e
00000120: 5308 8d3d 17c3 ba3e 53d9 ba3d ce2f e53d
00000130: 6877 a7bd 387f 9b3e 6d90 7cbe 361e f3be
00000140: 0929 73be c775 2c3e c03a cd3e 49fc 243c
00000150: 49d3 19bc d9ea 233e 655a ee3d 6e0e 15bd
00000160: 5c1f 14bd 09eb 4e3d da42 b83d f710 3abd
00000170: 97bc f5bd 8ae5 c7bd c369 00be 1cf6 cc3e
00000180: b384 9a3b 6be6 e4bd 27ac 42be 70d3 4ebe
00000190: c2ea dcbe 6b34 b53e 0e17 6dbc b7e3 1ebc
000001a0: 42db a23e c7fc ad3c ea73 a1bd 378e 933c
000001b0: db13 4f3d c6df 053d 2d1f c13c 7cc4 66be
000001c0: f0c5 50bd a4fe 903d 7744 823d 4812 c53d
000001d0: 5dde a03e 6b49 263e f2d4 563e 56fc 543e
000001e0: 75cc 843c c56b acbd 8baa 353e 2073 3e3e
000001f0: 4f82 9fbd 5d69 2c3e 39c5 c53d b67b fa3d
00000200: cfb8 2abd b499 d13d 2b6f d2bc 38f2 bcbd
00000210: d1aa cabc 2cb2 a13c 6c43 30bc f93f 073b
00000220: 7f28 023a bafd 6cbc c2e7 fa3c 6126 3cbc
00000230: 33d7 243b 6926 e63b 766d 12bd f8af e23c
00000240: d64c 2cbc 404b acbb 4729 9a3b bec2 0cbc
00000250: a55d e5bb 821b a139 e0b0 863c 9068 5bbd
00000260: 22c4 05bd 0eb4 d439 73ad aa3c 62ff 55bd
00000270: 3a14 973c 8ac4 1f3d 8470 4c3e f48f 683c
00000280: f706 653d 6907 4f3c be91 14bc f0d3 e7bc
00000290: 6018 dabb 317b 3f3d 6ff1 b0bb 36e5 15be
000002a0: 9ca1 d43c aa83 203b 407a ffbd 6287 15bd
000002b0: 2d97 8d3c 41d4 603c 3ba3 c83b 91b4 2b3d
000002c0: 4aa1 3cbd d392 013d 4b0c 55bc 6157 153c
000002d0: df68 2cbd 05da 48bc 07fb e3bb e1fd 043c
000002e0: 135f 87bc dfed 923b 3372 46bc ddaf e3bc
000002f0: 5b15 23bd bbb3 953c 5ac1 2a3c 3175 913b
00000300: 0d75 afbc d949 d4bd 51d7 3c3c 49d4 80bc
00000310: 1940 e6bc 81a7 f038 7c52 9d3c cec8 6fbc
00000320: f240 c4bc 98e6 9dbc 5371 ed3b ccfb c3bb
00000330: f9fc 2abc f4b8 81bd a693 f8bc cbac 4d3d
00000340: ac05 e13d bed4 3f3d 95e4 d2bb baaf 30bd
00000350: 0b64 83bc 2cf7 0fbb 9064 bfbc 3a4a c03c
00000360: 55d5 90bc b76a 5b3b b860 6ebd 1b84 f03d
00000370: 4521 77bb 66bd 18bb fc5a c5bc 4766 723d
00000380: b9fd 993b 3103 84bc 6daa 883d 01cb 39bb
00000390: 829f 743d 9936 57bc 63f8 1f3c d350 0cbc
000003a0: 89d9 11be 2f38 67bc 526b 333c 83cd 813c
000003b0: f63f edb9 b8fa 1fbd 4f5c a03b 1315 053c
000003c0: 0061 e8bd de93 053c d62e 733d dc62 0f3c
000003d0: afe9 7fbd 064a 5d3d 9a84 583e 8a8e 8abc
000003e0: a8cc 99bc 1e6a 033d 67f7 a43c 2c5b 373c
000003f0: 99da dcbb d509 9ebd a68a 6e3b fb1f 5a3b
0.24352875 -0.011359875 -0.14084709 0.120770805 0.208278 -0.039708894 -0.21397111 0.069862224
-0.06045129 0.14443387 0.37381637 0.15485723 -0.056037866 0.015225303 -0.056220233 0.2916937
-0.08853455 -0.122066356 -0.08654343 -0.058291763 -0.16777806 0.04276718 -0.03448003 0.047414534
-0.3011624 0.10354736 0.20567328 0.1551652 0.11666545 0.10080539 0.1573917 -0.072347224
0.06708977 0.05231399 0.087305665 0.2651653 0.09268159 0.015655097 0.11296803 -0.03477891
0.055836413 0.10520432 0.37237033 0.07280636 -0.11897211 -0.0006063956 0.051492326 0.064919144
0.06320117 0.10553366 0.1097543 -0.051989026 -0.27736878 0.0755305 0.087797485 -0.004053263
0.35865533 -0.013903928 0.17919585 -0.20508209 -0.06255831 -0.19121647 -0.13777217 -0.13736174
-0.09400349 -0.12790278 0.058538724 0.0012524284 0.034012754 -0.06960906 0.06374597 0.1318847
0.06886353 0.36476967 0.091234826 0.11190759 -0.08177072 0.30370498 -0.24664469 -0.47483987
-0.23746122 0.16841803 0.40083885 0.010069915 -0.009388753 0.16007556 0.11638335 -0.036390714
-0.03616272 0.050517116 0.08997126 -0.045426335 -0.11998861 -0.09760578 -0.12540345 0.40031517
0.004715526 -0.11176761 -0.19010983 -0.20197845 -0.43147856 0.35391554 -0.014470829 -0.009697846
0.31807905 0.021238698 -0.07883437 0.01801215 0.050556045 0.03268411 0.023574436 -0.2253589
-0.050970018 0.07079819 0.06360715 0.096226275 0.3141965 0.16238944 0.2097967 0.20799384
0.016210774 -0.08418993 0.17740838 0.18598604 -0.07788526 0.16837068 0.09656758 0.12230627
-0.041680153 0.10234395 -0.025687775 -0.09225887 -0.024739655 0.01973828 -0.010758262 0.0020637496
0.0004965141 -0.01446479 0.030628089 -0.01148376 0.0025152683 0.007023622 -0.03574892 0.027671799
-0.010516366 -0.005257994 0.0047046277 -0.008591352 -0.0069996887 0.00030728808 0.016441762 -0.053566515
-0.03265775 0.00040569942 0.02083466 -0.052245505 0.018442262 0.039005794 0.19964796 0.014194477
0.055914845 0.012636044 -0.009067951 -0.028299302 -0.0066557378 0.046748344 -0.005399875 -0.14638218
0.025955968 0.002449254 -0.12474489 -0.036506064 0.017284 0.01372248 0.006122974 0.04192025
-0.046052255 0.031634163 -0.013003419 0.009115071 -0.0420922 -0.012259011 -0.006957415 0.00811717
-0.016524827 0.004483923 -0.012112188 -0.02779382 -0.039815288 0.018274179 0.010422075 0.004439019
-0.021418119 -0.10365648 0.011525945 -0.015726225 -0.028106736 0.00011475292 0.01920437 -0.014635278
-0.02395675 -0.019274995 0.0072461753 -0.0059809443 -0.01043629 -0.06334105 -0.030343842 0.050213616
0.1098741 0.046833746 -0.0064359405 -0.043136336 -0.016038915 -0.0021967394 -0.023363382 0.023472894
-0.01767985 0.0033480355 -0.058197707 0.11743947 -0.003770904 -0.002330625 -0.024091236 0.05917957
0.0046994356 -0.016114803 0.06673131 -0.002834976 0.05972243 -0.013135576 0.00976381 -0.008564192
-0.1424314 -0.014112516 0.01095088 0.015845066 -0.00045251817 -0.039057463 0.0048938165 0.0081227
-0.11346626 0.00815293 0.059370838 0.008751597 -0.062478717 0.054025672 0.21144333 -0.016913671
-0.018774346 0.032083623 0.020137502 0.011191171 -0.006739926 -0.07716719 0.003639856 0.0033283222

lstm.bias_ih_l0 f4 [512]
00000000: d6e9 c5bf 8ced 0d3f 65d6 78bf 5c06 dabf
00000010: 7111 3dbf c766 7e3e e1cb de3e 4695 42bf
00000020: bbcc cabc 6d9a 05bf b6ce 04c0 f2d0 b33e
00000030: 6a9a 783e 26e9 0d3f a392 e33e 149b c4bf
00000040: 5bfc c2bf 7f0d 1f3e a9cd 863f d074 6c3e
00000050: 5e63 0a3f 4d5b 22bf adcc 683f abfd 033f
00000060: 0766 c6bf 3f69 3b3f 5045 e0bf 4c71 59bf
00000070: c29d 02c0 30e7 143f 43b3 59bf dd30 ed3e
00000080: e981 b8bf f10a 9e3d a9b9 7f3f 431a d2be
00000090: f7f1 4a3f 92bb e23e 7585 99bd b537 65bf
000000a0: ac3b b4bf 172c 5d3e f16b b6bf df0e ef3e
000000b0: c486 6a3e 4cbe d6be bbf2 cc3e b3f0 1a3f
000000c0: d97d 80bf 34b4 123f 32a0 f2bf df2c b4bb
000000d0: 6f3e 4cbf a745 313f 1571 c6be 2e57 b53e
000000e0: 556a edbf 7bee 1a3f 3407 28bf a933 a1bf
000000f0: 1bc9 ebbe d48d 39bf 891f a13e 02bd 913f
00000100: dff9 763a 7f7e aabe 8f9d 95bf 6df9 d73e
00000110: f1eb 863e 3aa3 a83f 7927 e03e 1ebf aabf
00000120: a40a 8dbe 7efc 74bf 06b1 4dbf ab91 873f
00000130: 0a59 fc3d 822c d7bf 1600 a43e 05da 473f
00000140: 1ac4 0cbf 03bc ee3d 2c66 89bf 600e 693f
00000150: 4bc5 7bbf 6e60 813f daaf ffbf b005 9abf
00000160: 997f a3bd 05a3 8a3f dac8 e5bf 4e21 dabf
00000170: 46ec f53e 0d93 8c3f c88f 4d3f c9ad 01c0
00000180: d604 a0bf 1f56 8cbe be24 103f 261c 283f
00000190: 1c44 1cbf b2e0 83bf e693 36bf 0088 87bf
000001a0: dfc3 bcbf c318 493f c07d abbf cf8c 193e
000001b0: 13ef 55bf dae4 993e 01b0 483f 6efe 16bf
000001c0: 21ef debf 6d30 a3be 2553 453f f511 7f3f
000001d0: 33aa f0bf 1cc8 79bf cc8e aebe b81a d0be
000001e0: d5ad 973e dab2 3fbf 11bd adbe 10bb d7bf
000001f0: 4223 883e ac63 6bbf eb48 3abe 4dcb a03f
00000200: 1299 083f 64e9 a23e f4af 4c3e 8c41 2f3d
00000210: 89e1 893f 8bd9 733e c7ad 363f ff8a 74bf
00000220: 1fa1 303f ff85 773f 5ad3 9d3e c270 86bf
00000230: be74 ed3d b5cf a53e d63f 243f 0a96 12bf
00000240: 4554 313f f23f 54bf f445 703f b12f 4c3f
00000250: 66cb 09be 19b5 d6bd de5f b03e 3287 a03e
00000260: 1274 bf3e adf5 6cbf 5e8e 643f 423e e5be
00000270: 9192 743e cd92 35bf d427 c4be 66c8 b33e
00000280: 234a eabe 2022 85bd 85bd 85bf 6acb 06bd
00000290: 4b76 093f 585c dcbe f48c 63bf 96dc e0be
000002a0: 39c4 1abf 0529 1dbe ccf1 0e3f a797 a33e
000002b0: 2109 1ebf 6eed 0fbf d439 1bbf 44ed b5be
000002c0: 1239 a43f 782f cebd 5be2 2c3f 80dd 52bf
000002d0: 37dd 08bf 4f27 5e3f 60ad f4be 0c13 623f
000002e0: e46e 33be 4ee0 a3be 2d42 773d 6ddf 55be
000002f0: ed3d 8a3f 942a 07bf c738 2abf c7d6 3a3f
00000300: 8642 7d3e e95c 2bbf 1eb4 29bf c76e 06bf
00000310: d0ec 243f 0c5e e63c 435f 7d3e 89f1 303e
00000320: 0dd6 1c3e 6421 6f3f d325 1a3e 89ce 403f
00000330: 6728 fbbe 4467 fabe 481c c83e d2d6 adbe
00000340: f8fb 97be 2cee 27be a3d6 e9bd 9ad3 583e
00000350: 77e1 06bf cc7d 74bf a050 05bf d248 603e
00000360: 1d33 1e3f 2139 3b3f cde2 013f 053e cebe
00000370: 4220 8e3e ec97 243f 8e2e 8cbe c3aa 94be
00000380: 03e6 873f c8dd 1fbf a7c3 013e 0bff 74bf
00000390: 4940 02bf f149 01bf 69cb a4be a35e 51bf
000003a0: cdc8 3c3f 3b2c 54bd 2296 14bf fb04 633f
000003b0: e51b e0be 3fce bf3c cdfd b0bd 4f46 a6be
000003c0: 3f14 573f f64c 50bf 4a93 e53e 5bd1 c43e
000003d0: 92e1 513f 9b35 343f 4792 abbe 7aec 41bf
000003e0: 4987 b83e 93ea 8abe 45eb 5abf 7f0e 6d3f
000003f0: 182a 4dbf 29af 06bf 33e4 05bf d45f 11bf
-1.5461986 0.5544059 -0.9720214 -1.7033191 -0.7385474 0.24843894 0.43514922 -0.76009023
-0.024755826 -0.5218876 -2.0751166 0.3512035 0.24277654 0.5543388 0.44447812 -1.5359826
-1.5233263 0.15532492 1.0531512 0.23091435 0.5405787 -0.63420564 0.9093731 0.5155894
-1.5499886 0.7320747 -1.7521152 -0.849385 -2.0408788 0.58165264 -0.85039157 0.46326342
-1.4414645 0.07716931 0.9989267 -0.4103566 0.7927546 0.4428373 -0.07496158 -0.8953813
-1.408071 0.2159885 -1.4251691 0.46691033 0.22902972 -0.4194206 0.4002894 0.6052353
-1.0038406 0.5730622 -1.8955138 -0.005498513 -0.79782766 0.69246906 -0.3875815 0.35418075
-1.8548075 0.6052014 -0.6563599 -1.259389 -0.4605187 -0.7248204 0.31469372 1.1385806
0.0009421389 -0.33299634 -1.1688708 0.42182484 0.26351884 1.3174813 0.43780115 -1.3339574
-0.2754718 -0.9569777 -0.8034824 1.0591329 0.1232167 -1.6810458 0.32031316 0.78067046
-0.5498673 0.11656954 -1.0734305 0.9103756 -0.9834792 1.0107553 -1.9975541 -1.2032986
-0.07983322 1.0831 -1.795192 -1.7041414 0.48031825 1.0982376 0.8029752 -2.026232
-1.2501476 -0.27409455 0.56306064 0.6566795 -0.61041427 -1.0302947 -0.71319425 -1.0588379
-1.4747275 0.7855341 -1.3397751 0.1499512 -0.83567923 0.30057412 0.7839356 -0.5898198
-1.7416726 -0.31872883 0.77079993 0.99636775 -1.8801941 -0.9757097 -0.3409332 -0.40645385
0.2962481 -0.7488228 -0.3393331 -1.6853962 0.265894 -0.9194896 -0.18191878 1.2562042
0.53358567 0.31818688 0.19988996 0.04278712 1.0771953 0.23813455 0.71358913 -0.9552459
0.6899585 0.96688837 0.3082531 -1.0503161 0.115945324 0.3238503 0.64159906 -0.5726019
0.6926921 -0.8291007 0.9385674 0.7976027 -0.13456497 -0.104837604 0.3444814 0.31353146
0.37393242 -0.9256237 0.89279735 -0.4477406 0.23884036 -0.70927125 -0.38311636 0.3511383
-0.45759687 -0.065006495 -1.0448462 -0.032908835 0.53696126 -0.43039203 -0.8888695 -0.43918294
-0.6045566 -0.15347679 0.558377 0.3195164 -0.6173268 -0.56221664 -0.60635114 -0.35532582
1.2829916 -0.10067648 0.6753289 -0.8236923 -0.5346255 0.8677873 -0.47788525 0.88310313
-0.1752277 -0.32007068 0.060365845 -0.20886011 1.0800148 -0.52799344 -0.66492885 0.72983974
0.24732408 -0.66938645 -0.6629046 -0.5251278 0.6442385 0.028121017 0.2474337 0.17279638
0.15316029 0.93410325 0.15053491 0.7531515 -0.49054262 -0.4890691 0.39084077 -0.33952957
-0.29684424 -0.16399449 -0.11417892 0.2117447 -0.5268778 -0.9550445 -0.5207615 0.21902779
0.6179674 0.73134047 0.50736696 -0.40281692 0.27758986 0.64294314 -0.27379268 -0.2903653
1.0617069 -0.62447786 0.12672292 -0.95701665 -0.5087934 -0.5050345 -0.3218644 -0.8178503
0.737439 -0.051799994 -0.58041584 0.88679475 -0.43771282 0.023413775 -0.08642159 -0.32475516
0.8401527 -0.81367433 0.44838935 0.38440976 0.8198482 0.70394295 -0.33510038 -0.7575146
0.36040714 -0.2713209 -0.8551524 0.92600244 -0.80142355 -0.52611023 -0.5230133 -0.5678685

lstm.bias_hh_l0 f4 [512]
00000000: d6e9 c5bf 8ced 0d3f 65d6 78bf 5c06 dabf
00000010: 7111 3dbf c766 7e3e e1cb de3e 4695 42bf
00000020: bbcc cabc 6d9a 05bf b6ce 04c0 f2d0 b33e
00000030: 6a9a 783e 26e9 0d3f a392 e33e 149b c4bf
00000040: 5bfc c2bf 7f0d 1f3e a9cd 863f d074 6c3e
00000050: 5e63 0a3f 4d5b 22bf adcc 683f abfd 033f
00000060: 0766 c6bf 3f69 3b3f 5045 e0bf 4c71 59bf
00000070: c29d 02c0 30e7 143f 43b3 59bf dd30 ed3e
00000080: e981 b8bf f10a 9e3d a9b9 7f3f 431a d2be
00000090: f7f1 4a3f 92bb e23e 7585 99bd b537 65bf
000000a0: ac3b b4bf 172c 5d3e f16b b6bf df0e ef3e
000000b0: c486 6a3e 4cbe d6be bbf2 cc3e b3f0 1a3f
000000c0: d97d 80bf 34b4 123f 32a0 f2bf df2c b4bb
000000d0: 6f3e 4cbf a745 313f 1571 c6be 2e57 b53e
000000e0: 556a edbf 7bee 1a3f 3407 28bf a933 a1bf
000000f0: 1bc9 ebbe d48d 39bf 891f a13e 02bd 913f
00000100: dff9 763a 7f7e aabe 8f9d 95bf 6df9 d73e
00000110: f1eb 863e 3aa3 a83f 7927 e03e 1ebf aabf
00000120: a40a 8dbe 7efc 74bf 06b1 4dbf ab91 873f
00000130: 0a59 fc3d 822c d7bf 1600 a43e 05da 473f
00000140: 1ac4 0cbf 03bc ee3d 2c66 89bf 600e 693f
00000150: 4bc5 7bbf 6e60 813f daaf ffbf b005 9abf
00000160: 997f a3bd 05a3 8a3f dac8 e5bf 4e21 dabf
00000170: 46ec f53e 0d93 8c3f c88f 4d3f c9ad 01c0
00000180: d604 a0bf 1f56 8cbe be24 103f 261c 283f
00000190: 1c44 1cbf b2e0 83bf e693 36bf 0088 87bf
000001a0: dfc3 bcbf c318 493f c07d abbf cf8c 193e
000001b0: 13ef 55bf dae4 993e 01b0 483f 6efe 16bf
000001c0: 21ef debf 6d30 a3be 2553 453f f511 7f3f
000001d0: 33aa f0bf 1cc8 79bf cc8e aebe b81a d0be
000001e0: d5ad 973e dab2 3fbf 11bd adbe 10bb d7bf
000001f0: 4223 883e ac63 6bbf eb48 3abe 4dcb a03f
00000200: 1299 083f 64e9 a23e f4af 4c3e 8c41 2f3d
00000210: 89e1 893f 8bd9 733e c7ad 363f ff8a 74bf
00000220: 1fa1 303f ff85 773f 5ad3 9d3e c270 86bf
00000230: be74 ed3d b5cf a53e d63f 243f 0a96 12bf
00000240: 4554 313f f23f 54bf f445 703f b12f 4c3f
00000250: 66cb 09be 19b5 d6bd de5f b03e 3287 a03e
00000260: 1274 bf3e adf5 6cbf 5e8e 643f 423e e5be
00000270: 9192 743e cd92 35bf d427 c4be 66c8 b33e
00000280: 234a eabe 2022 85bd 85bd 85bf 6acb 06bd
00000290: 4b76 093f 585c dcbe f48c 63bf 96dc e0be
000002a0: 39c4 1abf 0529 1dbe ccf1 0e3f a797 a33e
000002b0: 2109 1ebf 6eed 0fbf d439 1bbf 44ed b5be
000002c0: 1239 a43f 782f cebd 5be2 2c3f 80dd 52bf
000002d0: 37dd 08bf 4f27 5e3f 60ad f4be 0c13 623f
000002e0: e46e 33be 4ee0 a3be 2d42 773d 6ddf 55be
000002f0: ed3d 8a3f 942a 07bf c738 2abf c7d6 3a3f
00000300: 8642 7d3e e95c 2bbf 1eb4 29bf c76e 06bf
00000310: d0ec 243f 0c5e e63c 435f 7d3e 89f1 303e
00000320: 0dd6 1c3e 6421 6f3f d325 1a3e 89ce 403f
00000330: 6728 fbbe 4467 fabe 481c c83e d2d6 adbe
00000340: f8fb 97be 2cee 27be a3d6 e9bd 9ad3 583e
00000350: 77e1 06bf cc7d 74bf a050 05bf d248 603e
00000360: 1d33 1e3f 2139 3b3f cde2 013f 053e cebe
00000370: 4220 8e3e ec97 243f 8e2e 8cbe c3aa 94be
00000380: 03e6 873f c8dd 1fbf a7c3 013e 0bff 74bf
00000390: 4940 02bf f149 01bf 69cb a4be a35e 51bf
000003a0: cdc8 3c3f 3b2c 54bd 2296 14bf fb04 633f
000003b0: e51b e0be 3fce bf3c cdfd b0bd 4f46 a6be
000003c0: 3f14 573f f64c 50bf 4a93 e53e 5bd1 c43e
000003d0: 92e1 513f 9b35 343f 4792 abbe 7aec 41bf
000003e0: 4987 b83e 93ea 8abe 45eb 5abf 7f0e 6d3f
000003f0: 182a 4dbf 29af 06bf 33e4 05bf d45f 11bf
-1.5461986 0.5544059 -0.9720214 -1.7033191 -0.7385474 0.24843894 0.43514922 -0.76009023
-0.024755826 -0.5218876 -2.0751166 0.3512035 0.24277654 0.5543388 0.44447812 -1.5359826
-1.5233263 0.15532492 1.0531512 0.23091435 0.5405787 -0.63420564 0.9093731 0.5155894
-1.5499886 0.7320747 -1.7521152 -0.849385 -2.0408788 0.58165264 -0.85039157 0.46326342
-1.4414645 0.07716931 0.9989267 -0.4103566 0.7927546 0.4428373 -0.07496158 -0.8953813
-1.408071 0.2159885 -1.4251691 0.46691033 0.22902972 -0.4194206 0.4002894 0.6052353
-1.0038406 0.5730622 -1.8955138 -0.005498513 -0.79782766 0.69246906 -0.3875815 0.35418075
-1.8548075 0.6052014 -0.6563599 -1.259389 -0.4605187 -0.7248204 0.31469372 1.1385806
0.0009421389 -0.33299634 -1.1688708 0.42182484 0.26351884 1.3174813 0.43780115 -1.3339574
-0.2754718 -0.9569777 -0.8034824 1.0591329 0.1232167 -1.6810458 0.32031316 0.78067046
-0.5498673 0.11656954 -1.0734305 0.9103756 -0.9834792 1.0107553 -1.9975541 -1.2032986
-0.07983322 1.0831 -1.795192 -1.7041414 0.48031825 1.0982376 0.8029752 -2.026232
-1.2501476 -0.27409455 0.56306064 0.6566795 -0.61041427 -1.0302947 -0.71319425 -1.0588379
-1.4747275 0.7855341 -1.3397751 0.1499512 -0.83567923 0.30057412 0.7839356 -0.5898198
-1.7416726 -0.31872883 0.77079993 0.99636775 -1.8801941 -0.9757097 -0.3409332 -0.40645385
0.2962481 -0.7488228 -0.3393331 -1.6853962 0.265894 -0.9194896 -0.18191878 1.2562042
0.53358567 0.31818688 0.19988996 0.04278712 1.0771953 0.23813455 0.71358913 -0.9552459
0.6899585 0.96688837 0.3082531 -1.0503161 0.115945324 0.3238503 0.64159906 -0.5726019
0.6926921 -0.8291007 0.9385674 0.7976027 -0.13456497 -0.104837604 0.3444814 0.31353146
0.37393242 -0.9256237 0.89279735 -0.4477406 0.23884036 -0.70927125 -0.38311636 0.3511383
-0.45759687 -0.065006495 -1.0448462 -0.032908835 0.53696126 -0.43039203 -0.8888695 -0.43918294
-0.6045566 -0.15347679 0.558377 0.3195164 -0.6173268 -0.56221664 -0.60635114 -0.35532582
1.2829916 -0.10067648 0.6753289 -0.8236923 -0.5346255 0.8677873 -0.47788525 0.88310313
-0.1752277 -0.32007068 0.060365845 -0.20886011 1.0800148 -0.52799344 -0.66492885 0.72983974
0.24732408 -0.66938645 -0.6629046 -0.5251278 0.6442385 0.028121017 0.2474337 0.17279638
0.15316029 0.93410325 0.15053491 0.7531515 -0.49054262 -0.4890691 0.39084077 -0.33952957
-0.29684424 -0.16399449 -0.11417892 0.2117447 -0.5268778 -0.9550445 -0.5207615 0.21902779
0.6179674 0.73134047 0.50736696 -0.40281692 0.27758986 0.64294314 -0.27379268 -0.2903653
1.0617069 -0.62447786 0.12672292 -0.95701665 -0.5087934 -0.5050345 -0.3218644 -0.8178503
0.737439 -0.051799994 -0.58041584 0.88679475 -0.43771282 0.023413775 -0.08642159 -0.32475516
0.8401527 -0.81367433 0.44838935 0.38440976 0.8198482 0.70394295 -0.33510038 -0.7575146
0.36040714 -0.2713209 -0.8551524 0.92600244 -0.80142355 -0.52611023 -0.5230133 -0.5678685

ln.weight f4 [128]
00000000: 0c7a 15bf 4e58 6d3f b255 1b3f 7cbd 2f3f
00000010: 6b14 333f e26e 6c3f 3ba2 92bd 77c4 4ac0
00000020: 2aaf 16be 8dce 4cbf c550 b7bf f56f 88be
00000030: 1dd9 6e3f e6a7 54bf 290b 7c3f 034f 48be
00000040: 5abc b7c0 655d 623f e9ab 1dbf 5510 d93e
00000050: 5592 4dbf e3f7 5fc0 9189 a53f 6e6d 783f
00000060: bd1f 48bf 1a55 823f 18de 87bf 0503 93be
00000070: 1519 89bf d1b1 3bc0 25ae 01bf 4936 2cbf
00000080: 0fec 573f 27c8 64bf 1da1 363f 3fe6 1840
00000090: 2234 553f 2a8b adbf c540 4ebf 98dc 7f3f
000000a0: f969 debe d7cc 37bf c548 58bf 8cf2 713f
000000b0: 584d 2240 8e8e c23f 3cb0 acbd cae4 43bf
000000c0: 304d 0c3f 10e5 3a40 97b7 cb3f 7855 3f3f
000000d0: 4bc8 25bf 3e18 293d c18d 063f 2f5a 673e
000000e0: c1e5 203f da16 3abe 61db 913e cbd4 643f
000000f0: 1fa0 61bf 3238 0ebf 6efa b23f 1539 bfbd
00000100: baf0 363f ff78 d33e 6745 a2c0 488e 8f3f
00000110: 0aec 73bf f39e 3a3e 4fee 9f3f b7b4 5b3f
00000120: 0143 32bf 7b46 40bf 72fe 573f 14b4 8bbe
00000130: 59fc 9cbe 174c bc3e 4eda 2a3f b3f6 d03e
00000140: 82b6 a2be 3d1e a0be 7798 183f 67dc 68bf
00000150: b3c2 ea3e 4af6 7a3f 893f 23bf 68ad 47bf
00000160: 39a0 703f 0062 cbbe 7b5c 423f 3121 2fc0
00000170: 9e5b 7cbf d6da b03e 0ccc b8bf e903 81bf
00000180: f15f 623f 139c 79bf 9116 9a3f b8ed 0ec0
00000190: 6da8 633f 0166 ffbe 5626 87be 48f1 5340
000001a0: b02a 79bf d24d b13f 6c5b a03f 2787 f8be
000001b0: 58ae 493f eab7 c6bf 7adb f8be 1384 1f3f
000001c0: 1f52 883f 6cce 98bf 6ad8 7d3f 6d4b 603f
000001d0: ff92 87bf ebea 4ebf 4825 cc3e d8c2 1fbf
000001e0: b1aa 863f 0200 7bbe feb4 fa3d e6ca 5a3f
000001f0: 0660 5b40 841f 673f 9292 12bf 7734 13bf
-0.58389354 0.9271287 0.60677636 0.68648505 0.6995303 0.92356694 -0.07159849 -3.1682413
-0.14715257 -0.8000267 -1.4321524 -0.26647916 0.9330004 -0.8306869 0.9845453 -0.1956139
-5.741742 0.8842376 -0.6159044 0.42395273 -0.8030141 -3.4995048 1.2932607 0.97041976
-0.7817343 1.0182221 -1.0614653 -0.2871324 -1.071078 -2.932728 -0.5065635 -0.6727033
0.8434457 -0.8936791 0.7133959 2.389053 0.83282673 -1.3558095 -0.8056758 0.99945974
-0.43440226 -0.71796936 -0.8448604 0.9451072 2.5359707 1.5199754 -0.084320515 -0.7652098
0.5480528 2.9202309 1.5915402 0.7473979 -0.6475875 0.041282885 0.5256005 0.22592996
0.62850577 -0.1817278 0.28487685 0.89387196 -0.8813495 -0.555545 1.3982675 -0.093370594
0.7146107 0.4130325 -5.070972 1.1215296 -0.9528204 0.18224697 1.2494601 0.85822624
-0.6963349 -0.75107545 0.8437263 -0.27285826 -0.30661276 0.36776802 0.66739357 0.40813217
-0.31779867 -0.3127307 0.5960764 -0.9096131 0.4585167 0.9803206 -0.6376882 -0.7799897
0.9399448 -0.39723206 0.75922364 -2.7364008 -0.98577297 0.3454196 -1.443727 -1.0079318
0.88427645 -0.97503775 1.2038137 -2.2332592 0.8892887 -0.4988251 -0.26396435 3.3116016
-0.9733076 1.3851874 1.25279 -0.48540613 0.7878165 -1.5524876 -0.48604947 0.62310904
1.0650061 -1.1937995 0.99158347 0.8761509 -1.0591735 -0.80827206 0.39872193 -0.6240668
1.0520841 -0.24511722 0.12241553 0.8546585 3.4277358 0.90282464 -0.572549 -0.5750193

ln.bias f4 [128]
00000000: 774a 403f ad33 623f 4ced 44bf 867f 44bf
00000010: 5889 6dbf 8f5e 6d3f 36f8 35bf 30ea 763f
00000020: 1430 47bf 01bd 7e3f fdad 6b3f d74a 4c3f
00000030: 6db7 6d3f aaa3 53bf f5d4 713f 35f2 3a3f
00000040: 916f 6b3f c2fc 5abf 4cdc 73bf 989d 3d3f
00000050: d830 51bf 5a14 713f 98f3 7a3f 6e6a 653f
00000060: 7fbd 543f e8cc 5fbf 35f6 723f 81a2 3f3f
00000070: b056 513f 2f5e 64bf 3ce3 4bbf 42e1 62bf
00000080: 6b7c 4bbf 8068 553f deb0 403f 27de 5b3f
00000090: 8409 6a3f bf95 81bf a94a 4d3f 47fe 373f
000000a0: 50c6 463f 8057 58bf cfee 703f f392 803f
000000b0: dad7 613f 2079 503f e50d 483f ad4f 53bf
000000c0: 6279 5bbf ac70 6a3f 266a 59bf eb16 3fbf
000000d0: a0ba 42bf 8159 583f 4331 433f be1c 463f
000000e0: 1191 4ebf 9503 36bf a378 42bf 82d1 3d3f
000000f0: 8165 5d3f 2fa4 35bf ae94 7b3f 95e4 333f
00000100: 2878 643f c854 393f 657e 723f a5a8 4ebf
00000110: 5501 69bf ae57 50bf b25b 7b3f 9054 61bf
00000120: a1d3 4f3f 49ab 7b3f 8dde 5abf 4271 403f
00000130: 78ed 35bf 8291 373f 8c1f 4e3f 8417 433f
00000140: 84be 3bbf b24c 393f 40d2 4abf 743a 64bf
00000150: 0308 3ebf 5b8d 65bf 02b5 483f 9843 5c3f
00000160: 6291 6d3f 4735 423f 6eb7 61bf 8361 6f3f
00000170: afc9 7fbf a7f0 603f 03b5 77bf 3cca 543f
00000180: aec8 5bbf a198 443f cfcd 733f 2203 7d3f
00000190: 3b60 45bf ad1d 3e3f 3cd6 31bf cd1d 6ebf
000001a0: 5d02 7c3f f962 7a3f 303e 443f 0715 3fbf
000001b0: 1281 6ebf 96f3 80bf 7f13 43bf b43e 38bf
000001c0: b092 54bf 02f2 683f c788 693f 6557 593f
000001d0: 8476 803f 96e7 6b3f b801 413f 6c2c 4cbf
000001e0: 915b 5f3f 5534 38bf bf4a 433f 90e9 68bf
000001f0: a895 793f 8cd8 3fbf 4754 4bbf 5485 413f
0.75113624 0.883601 -0.76924586 -0.76757085 -0.92787695 0.9272241 -0.71081865 0.9645109
-0.77807736 0.9950715 0.9206236 0.79801697 0.9285801 -0.82671607 0.9446557 0.7302583
0.9196711 -0.8554193 -0.9525802 0.74068594 -0.81715155 0.9417168 0.98027945 0.89615524
0.8310165 -0.8742204 0.9490693 0.74857336 0.817729 -0.8920621 -0.7964361 -0.88624966
-0.7948672 0.8336258 0.7526988 0.8588585 0.9142077 -1.0123824 0.8019205 0.7187237
0.7764635 -0.84508514 0.94114393 1.0044845 0.8821999 0.8143482 0.781462 -0.8254345
-0.8573209 0.91578174 -0.84927595 -0.74644345 -0.7606602 0.8451157 0.7624704 0.7738761
-0.80690104 -0.71099216 -0.7596533 0.7414781 0.8648301 -0.7095365 0.9827374 0.70270663
0.89245844 0.7239499 0.9472411 -0.8072608 -0.9101766 -0.8138379 0.9818679 -0.8801966
0.81182295 0.98308235 -0.85495836 0.7517282 -0.71065474 0.717064 0.80516887 0.76207757
-0.7333758 0.7238265 -0.79227066 -0.8915169 -0.74230975 -0.89668816 0.78401196 0.8604064
0.9279996 0.75862545 -0.88170516 0.93508166 -0.9991712 0.87867206 -0.96760577 0.83121085
-0.8585309 0.76795393 0.95235914 0.98832905 -0.7709996 0.7426403 -0.6946752 -0.9301422
0.98441106 0.9780727 0.7665739 -0.7464146 -0.93165696 -1.0074337 -0.76201624 -0.7197068
-0.8303633 0.90994275 0.9122433 0.8489898 1.0036168 0.9215025 0.7539325 -0.7975528
0.87249094 -0.7195485 0.7628593 -0.9098139 0.9749398 -0.749398 -0.7942547 0.7559407

out.weight f4 [1, 128]
00000000: 4afe 9d3f 19ae 2740 d1e7 88bf f8f2 b4bf
00000010: 39e4 2fc0 7f7c 3240 0451 30bf e3be 4940
00000020: 0c10 35bf 39d7 1a40 2d67 1640 19b1 733f
00000030: fc67 1440 44a0 cabf aaa6 1940 b0d1 803f
00000040: 65f5 f940 50f8 72bf 2af1 b6bf c994 6f3f
00000050: f286 bbbf ba9f 6240 4ff4 0640 14ed 1c40
00000060: 1fa9 0740 b48b 88bf 95f4 1a40 3609 563f
00000070: 2f90 e93f e627 15c0 a660 8fbf e301 57c0
00000080: 792f c6bf 7320 913f 53e3 933f 0d88 0040
00000090: 44f2 4c40 8377 00c0 50da 843f d072 9d3f
000000a0: 965f 8b3f 90e5 d7bf 6153 0340 a01f 4940
000000b0: b929 f23f 4103 ac3f 7016 433f 952f d3bf
000000c0: cce6 0dc0 3aa9 1140 9153 4ec0 6bd5 7cbf
000000d0: aba2 7ebf d421 873f 35b2 773f a94d ab3f
000000e0: fc3d a0bf db49 7cbf af73 6cbf b566 7d3f
000000f0: 68dc c53f 5e1f 84bf 2341 ff3f d0d8 1d3f
00000100: e21b 3440 bd59 703f acff a740 9a11 cebf
00000110: 15ca 16c0 3667 42bf f78a 0440 0959 27c0
00000120: 6aef a63f ac5a 0840 a1e6 a2bf d96d 033f
00000130: a5ad 80bf ae06 863f 5fd9 b03f 1558 4d3f
00000140: ee41 4dbf 7c4d 8c3f 6806 83bf 860e 15c0
00000150: 52a8 6bbf 1fbe b5bf e243 9f3f 10ec c73f
00000160: cdd4 1c40 dd11 4b3f 58bb 11c0 f061 cc40
00000170: 4bf2 e8bf 6d8a 503f bb9b fcbf 2d2c d63f
00000180: 079c 21c0 45da b83f b3bf ee3f d33f 0d40
00000190: e6d3 babf ae7d 8a3f 517d 85bf 0bfe 68c0
000001a0: 2d7f fe3f 96c5 0340 3623 9c3f e0a7 94bf
000001b0: 4e14 e5bf 9bc1 d9bf f89f 92bf c2a3 8ebf
000001c0: bd17 f1bf 11bf c63f ff3e 1440 2cb3 0e40
000001d0: fd8a fe3f 720b e03f 9dcb 6e3f dd81 a2bf
000001e0: bb78 0240 0c41 56bf 5e9c 633f f0d7 f7bf
000001f0: b269 1b40 7977 bdbf 8b60 5dbf 7ccc 7a3f
1.2343228 2.620001 -1.0695745 -1.4136648 -2.7483046 2.7888486 -0.6887362 3.1522758
-0.7072761 2.4193861 2.3500473 0.95192105 2.3188467 -1.5830159 2.4007974 1.0063992
7.8112054 -0.94910145 -1.4292347 0.93586403 -1.4650557 3.540999 2.1086614 2.45197
2.1196973 -1.0667634 2.421178 0.83607805 1.8247126 -2.3305602 -1.120137 -3.3594902
-1.5483238 1.1338028 1.1553749 2.0083039 3.2022867 -2.0072944 1.0379124 1.2300663
1.0888546 -1.6866932 2.051964 3.1425552 1.8918983 1.3438493 0.7620611 -1.6498896
-2.2172117 2.2759538 -3.2238505 -0.9876315 -0.9946696 1.0557199 0.967563 1.3383075
-1.2518916 -0.98550195 -0.9236402 0.98984843 1.5457888 -1.0322073 1.9941753 0.61658955
2.8142018 0.9388693 5.24996 -1.6099122 -2.356084 -0.7593874 2.0709817 -2.6148093
1.3041813 2.1305342 -1.2726632 0.5133949 -1.0052992 1.0470788 1.3816336 0.8021253
-0.80178726 1.0961146 -1.023633 -2.3290114 -0.9205371 -1.4198645 1.2442591 1.5618916
2.4504883 0.7932413 -2.2770596 6.3869553 -1.8198942 0.8146122 -1.9735025 1.6732231
-2.5251482 1.444161 1.8652252 2.2070205 -1.4595916 1.0819604 -1.0428869 -3.6405056
1.9882561 2.0589347 1.2198246 -1.1613731 -1.7896821 -1.7012209 -1.1455069 -1.1143725
-1.8835369 1.5527059 2.316345 2.2296858 1.9886166 1.7503493 0.9327944 -1.2695881
2.0386188 -0.83693004 0.8891047 -1.9362774 2.4283261 -1.4802085 -0.8647544 0.9796827
